data.pth (torch_old, 17677 bytes, 6 tensors)

l1.weight f4 [8, 286]
00000000: 3b15 eabe 06ce 02bf 77f7 243f 99de 64bd
00000010: 49e9 c03d 8bdf 803f ed1c a0be 8e03 05bc
00000020: 1b09 253f 7015 7ebe 8820 553f 4567 86be
00000030: 2a35 803e 3eab 20bf a6e8 113f 3765 6f3e
00000040: d306 ae3e ffeb b7bf d70c 103f f159 213f
00000050: 040d cb3e 173e 1f3e dfa0 fa3e 160a 05be
00000060: 46ea 7e3e 19d4 bb3e 0fef 8b3f 0666 adbc
00000070: a27e 123e f568 4ebd b264 7fbf 63d0 d03e
00000080: 5ea8 173f 58ff 263e 475b 693e b65d a83e
00000090: 0800 10bd acb7 97bc 4f85 1abe f405 a1be
000000a0: bbc1 983f ae32 a2be db93 de3e 9ff6 ca3f
000000b0: ac09 063f e41a 0fbe d04a ec3d 97bf 9abd
000000c0: ee3a f0bd 286b a43d 7b39 8e3e 4dad 203d
000000d0: 061f 64bd 3bb9 33be 1ace c33c 7242 24bf
000000e0: afef c3be c9a5 99be 316a a1bd a0ae fb3d
000000f0: 1634 45bf 1786 ea3e d750 aebf 7f2f 1bbc
00000100: 70e5 d6be 5c4a 373f eca0 df3e c79d a73d
00000110: a146 1abf d5c7 253f a04b eaba 9770 04bd
00000120: 1ee0 7dbe d808 733e 24e7 fb3f e228 b53e
00000130: 83ff 2f3e 3038 813f bb77 dd3e 4ae9 1a3e
00000140: 0f93 b5bb 4d21 1e3d ec57 0fbf 0291 6fbf
00000150: 556e 433e ff6e 48bf 6c21 223f 19cb 2ebe
00000160: 761f 263f 1d91 dc3e fe3b 4abe f71f 623f
00000170: e2d5 1abf a9f3 66bd 4362 a2bd a547 b6bf
00000180: 1632 b33e ff90 2a3f d587 00bd 2321 b23f
00000190: 8c8b 8d3f 5947 97be 1268 97bd 25fc 2abf
000001a0: 32f2 8ebe 1d88 a8be 6fc8 cebd 1349 c7be
000001b0: 496c 083f a673 2b3e 4b5a 403f 10a7 e63e
000001c0: 9bfd eabd 5bfd ff3e 5828 25be 17c2 9e3e
000001d0: 67b4 22bf e9c9 ecbe dcba 043e 121d d5be
000001e0: 0a86 0740 22f8 c33f 8bd1 2dbe 1c89 813e
000001f0: f3e2 043f 29a4 7e3e c41e 23be b39e 863f
00000200: 9b97 313d 7c7a 953e 6094 e0bd aaba 1c3e
00000210: 25b6 5bbe 3278 2cbe 04e3 613f e4c4 b4bf
00000220: 186a 3b3f d314 353f a08a 23bf 423f 863f
00000230: 8975 16bf 00ea b2bb 807f 803d 3838 92bd
00000240: 153c ab3e 968f d6be f164 1d3e 198b 6e3f
00000250: 2bd4 00bf 7dad 283f b005 80bf d181 7ebf
00000260: 1034 5ebf 7eb0 21bf 90dc 8b3f 71eb 91be
00000270: ba7b 80bd 737e 9f3e 4783 a03e e4ed fc3d
00000280: 242f 453f 8a91 173e d0bf 10be bd3c bc3d
00000290: 8eba bf3e 5f9e 7b3e e1e6 313f 3e7d 5e3f
000002a0: e54a 753f 4524 ec3d 0067 13bd 7185 f2be
000002b0: 89af 3d3f cdab 463f e8a1 f43e 41a9 b93d
000002c0: a58b f2be 2217 9fbe e649 c63f 7305 2c3d
000002d0: 3c3b 2c3c 34da 39bf c071 983e a16e 543f
000002e0: fa3d 7cbf 860a 12bf 1e5b 58bd 90bb 243f
000002f0: 32c6 813f 5d14 86bf d641 a4be 7b0a 31bd
00000300: c866 a33f 7a2c b13e d6d6 e4bc 93f6 3dbe
00000310: 6600 0ebf 3bb7 a93c c25e a1bf ae93 a43f
00000320: eecc 023f 2cf0 1ebf fcbe f7bd 1c27 293f
00000330: e558 9e3f 517c 533f 9548 54bf dd55 90bf
00000340: 42aa 6cbf 9c3b 73be a493 86bf 1bbc 823f
00000350: 0b87 2e3f b270 2dbf 6fc9 1d3f 398a c83f
00000360: 2da1 76bd 55e3 ca3e b3d9 b6bd 3ebe 8a3f
00000370: 4c59 3f3e 079e 853f dda9 02be c8fb 00bf
00000380: 0809 9a3f ffe3 1fbf b481 8b3e 6b57 4cbe
00000390: 4879 c33e dfd3 873a e78c 003f 97e0 60bf
000003a0: 51aa 72be e0b2 b7bf 1e5e fbbe 74c0 c0bc
000003b0: 5507 fabe 0550 923d f77b 09be 47e0 b7be
000003c0: 3718 20bf b0c9 de3e 5050 433b 8b2b c23e
000003d0: 9da5 fcbd 07cc 583e 4b0c 92bd bb91 86be
000003e0: d554 dfbe cc28 0d3e be76 9a3e 0fac 413f
000003f0: 448f dc3e f5f6 8ebe e726 583e 49b3 b1bd
-0.45719323 -0.51095617 0.644401 -0.05587635 0.094194956 1.006822 -0.3127207 -0.008118523
0.6446702 -0.24812865 0.83252764 -0.26250663 0.2504056 -0.62761295 0.5699562 0.23378454
0.3398958 -1.4368895 0.5626959 0.63027865 0.39658368 0.15551029 0.4895086 -0.12992129
0.24894056 0.36685255 1.093233 -0.021166813 0.14306119 -0.050393064 -0.99763024 0.40783986
0.5924128 0.16308343 0.22788726 0.32883996 -0.03515628 -0.018520199 -0.15089916 -0.31449854
1.1934122 -0.3167929 0.4347218 1.5856513 0.5235851 -0.13975102 0.11537707 -0.07556074
-0.1172999 0.08028251 0.2777823 0.039227773 -0.05569365 -0.17551129 0.023901988 -0.6416389
-0.38268802 -0.30009297 -0.078815825 0.122891665 -0.770326 0.45805427 -1.361842 -0.009471773
-0.41971922 0.7159784 0.4367746 0.081843905 -0.6026402 0.64758044 -0.0017875321 -0.032333937
-0.24792525 0.23733842 1.9679914 0.35382754 0.17187314 1.0095272 0.4325541 0.15128055
-0.0055412124 0.038605977 -0.55993533 -0.9358064 0.19085057 -0.78294367 0.6333225 -0.17069663
0.64891756 0.43079463 -0.19749448 0.88330024 -0.6048261 -0.056384716 -0.07928898 -1.4240614
0.3499915 0.66627496 -0.03137954 1.3916363 1.1058211 -0.2954662 -0.07392897 -0.6679099
-0.27919155 -0.32916346 -0.100968234 -0.3892294 0.5329023 0.16743335 0.75137776 0.45049334
-0.11474153 0.49997982 -0.16128671 0.31007454 -0.6355652 -0.46247795 0.12961906 -0.4162374
2.117556 1.5310099 -0.16974466 0.2529992 0.519088 0.2486731 -0.15929705 1.0517181
0.043357473 0.2919501 -0.109658 0.15305582 -0.21456201 -0.16842726 0.88237023 -1.4122586
0.7320876 0.707349 -0.638834 1.0488055 -0.58773094 -0.005460024 0.06274319 -0.07139629
0.33444276 -0.41906422 0.15370537 0.93180996 -0.5032374 0.6588972 -1.0001736 -0.99416834
-0.8679819 -0.6315993 1.0926685 -0.2849994 -0.06273599 0.3115116 0.31350157 0.123500615
0.77025056 0.14801612 -0.1413567 0.091912724 0.37447017 0.24572133 0.6949292 0.86909854
0.95817405 0.11530355 -0.0359869 -0.47367433 0.7409597 0.776059 0.47779775 0.09065486
-0.47372165 -0.31072336 1.5491302 0.041997384 0.010512169 -0.72598577 0.29774284 0.82981306
-0.9853207 -0.5704731 -0.05282127 0.643487 1.013861 -1.0474964 -0.3208148 -0.043222886
1.2765741 0.34604245 -0.027934473 -0.18551092 -0.5546936 0.020717254 -1.2607043 1.2857568
0.5109395 -0.62085223 -0.12096974 0.660753 1.2370878 0.82611567 -0.8292325 -1.1276203
-0.9244729 -0.23753208 -1.0513806 1.0213655 0.6817481 -0.67750084 0.6163549 1.5667182
-0.060212303 0.39626566 -0.089282416 1.0839307 0.18686408 1.0438851 -0.1276011 -0.5038419
1.2034006 -0.6245727 0.27247393 -0.19955222 0.38178468 0.0010362825 0.50215 -0.87842697
-0.23697783 -1.4351463 -0.49095243 -0.023529269 -0.4883372 0.07144169 -0.13426195 -0.35913298
-0.6253695 0.4351325 0.0029802509 0.37923846 -0.12336276 0.2117158 -0.07131251 -0.2628306
-0.4361941 0.13785094 0.30168718 0.75653166 0.43078053 -0.27922788 0.2110859 -0.08676774

l1.bias f4 [8]
00000000: 3000 763f 15eb fa3f a1f3 0d40 5bd0 b33f
00000010: bd1e a93f cf59 6a3f 5876 b83f 2b34 1240
0.96094036 1.9602991 2.217995 1.404796 1.3212506 0.9154329 1.4411116 2.284434

l2.weight f4 [8, 8]
00000000: a974 3dbf 7ffc c33f 52e3 c53d 32eb 0b40
00000010: a6ef 1840 1899 b4bf e77b 10c0 3945 4840
00000020: 84bd 8d3f da8b fa3f 411d 5bbf c008 3240
00000030: 2aa7 fbbf 93a6 dc3f b658 0b3f bbd3 6b3f
00000040: e952 4cbe d0fa f53e 9853 e73e 4932 4640
00000050: e1f1 d73f 27f2 a7bf 89fe 8a40 9a3a ca3f
00000060: 1a82 4040 73e8 dbbe 0ebc 7a40 b45f b73e
00000070: 3488 74bd 4f5e 6740 ccb9 6f3e 7da1 3140
00000080: b5bf 8a40 0d8e 1b40 8c29 e0be 474a 91bf
00000090: f276 85bf 5918 963f 498b 083f da5e 0440
000000a0: 62b1 aabe e0db 1cbe 2885 f4bd ca23 8abe
000000b0: 6c9c 77be d0f6 cabc e2d1 a2be 400b 813c
000000c0: 5396 e03e 83dd 1f40 e50a 8a3f 05ee 90bf
000000d0: 8a03 2740 f143 a03f a677 3540 404b 18bf
000000e0: 9527 d5be 7c71 5440 4fdd a53f f606 49bf
000000f0: 63e7 10be b2a4 04c0 55fe 733e 0479 cebd
-0.74006134 1.5311431 0.096624985 2.1862302 2.389627 -1.410922 -2.2575624 3.129225
1.107346 1.9573929 -0.8559151 2.781784 -1.966039 1.7238334 0.5443224 0.9211995
-0.19953503 0.48042917 0.45180964 3.0968192 1.687069 -1.3120774 4.343571 1.5799134
3.0079408 -0.42950782 3.917728 0.35815203 -0.059700206 3.6151311 0.2341072 2.7754815
4.3359017 2.430545 -0.43781698 -1.1350793 -1.0426924 1.172618 0.5333753 2.0682893
-0.33338457 -0.1531825 -0.1193946 -0.2698043 -0.24180764 -0.024775892 -0.31800753 0.015752435
0.43864688 2.497895 1.0784575 -1.1322638 2.609591 1.2520734 2.8354278 -0.5948982
-0.4163176 3.3194265 1.2958163 -0.78526247 -0.14150767 -2.0725522 0.23827489 -0.10081676

l2.bias f4 [8]
00000000: 2b47 b23f 1759 9d3f 7bbf 90be ef74 983f
00000010: 6ffe dabe 1c4e fdbd 84a7 563f 8dde a13f
1.3927969 1.2292813 -0.28271088 1.1910685 -0.42772242 -0.12368414 0.8384936 1.2646042

l3.weight f4 [51, 8]
00000000: 23a8 b5bf 4441 463e 3f9b 28bc f0a0 37bf
00000010: 9d91 f7be de84 44be 47f4 53be e67f 36c0
00000020: bf3d 8dbe 1aa2 4d3e c116 c23d fd32 dfbf
00000030: 5d71 f1be 0fa6 33be a9a0 57bf 13bb 05be
00000040: f579 7cc0 294f 76bf 8eb3 1dbe 8796 0bbf
00000050: 11d8 1c3f 0053 533c e6f4 3ebc 56be 8cbe
00000060: 24a6 e8bf 26d6 b93e a082 bf3e 63e7 cbbf
00000070: bdbd 0ec0 7070 af3c adc2 f93e 9e78 15bf
00000080: 936b 493f 500b 933e 8714 b2bc 96aa 04c0
00000090: 4e3a 3dbe 0f8e 64be 7f1b 07c0 e6e1 cbbe
000000a0: c9b5 f03e b964 163e 1ca6 6bbf 7dfd 36bf
000000b0: 051e 5f3d 78ab fc3d 4c36 11c0 ab9f 02bf
000000c0: a0eb 603f 09c6 3abf f9b0 6dbe 1b16 f6bf
000000d0: 12fc 98be 0068 673b 81f1 63be 0aaa aebe
000000e0: a3f4 76bf 6668 c8be f8ed 5ec0 fc48 77ba
000000f0: f1c1 233f 6d07 b13e 4a8f 4fbe 4fa3 2f3e
00000100: 8ea6 57be 533b babf 247d 28c0 eb87 e23e
00000110: 2ee1 cc3e f408 fd3d 89ac 15be 0553 bcbf
00000120: ddc0 a23e 9ff4 0fc0 dbdd 4fbf 2ed5 70bc
00000130: 7162 ce3d bc9c 85be 7bb6 53bf c8db 48bf
00000140: 2523 33bf 7ef9 e3bd f06d 16bf e5a1 e0bd
00000150: 5f14 223f b731 873e 1863 24c0 ad6d e3bf
00000160: da29 b8bf 3b31 fabe 7b76 cf3e 9a9c 713d
00000170: 1e14 21c0 1208 1fbe b8c6 a9be d6e0 d1bf
00000180: 38dc 113e 9109 dfbf 4453 333f 775b 90bf
00000190: 9bf6 4ac0 d0c4 503d c451 c53e a286 1cbf
000001a0: 38d5 0c3e 7ee8 79bf 5960 ed3e 8f11 5bc0
000001b0: e091 1cbf 4126 863e 58dc a63e 7ae3 d03e
000001c0: 8b3f cfbf 6426 a2bf f9c0 73bf 677b ed3c
000001d0: 56b6 4b3e 7a19 033e 6c26 16bf 4d5e b73e
000001e0: c9e7 71be dad9 98c0 8bc2 1d3f 7378 c6bd
000001f0: ea4c f3bf d67e 2c3e 7d72 263f 06a0 79bf
00000200: 8dbc b7bf face 2bbf 3d93 cebe bae4 77bf
00000210: f799 4bbf 0c16 7cbe 6d0a 323e 0ae8 603f
00000220: db43 853e 7f6e 3e3f b0ec 5e3f a23c 35c0
00000230: d626 11c0 a6a6 0cbe 6804 85bf ddc7 d6bf
00000240: f843 e23e 4f6d 533f ff0b 833e d189 0fbf
00000250: ec9d 3cc0 5563 9c3e 583c 13c0 6248 15c0
00000260: b175 1ac0 dcaa 3ac0 ff22 43bf b935 dd3e
00000270: ccc6 bb3e 75ab 933e 844e 0a3f 6112 b4bf
00000280: d40e 01c0 4288 713e b94d f1bf 9402 e3bf
00000290: 7a4b 133f f0db 89bc ea7c 2a3f 2831 913f
000002a0: b83a 87bf 6c1a 07bf baa6 46bf d808 eabd
000002b0: 19d8 f33d 16f9 373e 2cc6 cbbe b498 edbf
000002c0: c26b c1bd 16ee 34bf e33b 2fbf 6b18 10bf
000002d0: 58f5 bcbe f955 aebe 84b4 7abf 4ef5 003f
000002e0: c6de 8c3e debe 223e 8f88 0ec0 09eb dbbf
000002f0: b7e9 ce3e 2559 06be 29a2 00bb 6fbf df3e
00000300: ae8f 60bf ed4c aabe ffeb 4dbf 7991 96bf
00000310: e3c2 bc3e 0acc 3d3e 554d fabd f749 3fbe
00000320: ecf9 e2bd d301 f1bd 64a7 60be 8734 43c0
00000330: 5321 483f df61 56be 6661 8cbe 7dba 203d
00000340: ace0 59bd 9e4e d4bf 0f0f c8be 6fd1 1bc0
00000350: 36fd de3e 05c9 b43e 70b9 223f 5f5f ea3e
00000360: 8f82 d4be d580 18c0 b599 26bf 9931 22bf
00000370: 2bdf a13e fa07 683e 225d 3e3d 9a69 933d
00000380: 6374 0cbf cbbe 7c3f 30b0 5fc0 8816 b83c
00000390: 7e1d a23e b78f 5ebe 5230 28bf b894 d2bf
000003a0: e94c f03e c939 3cbf 1ef2 44bf fd71 883e
000003b0: 00f3 10be b2a6 88be 9c23 10c0 9357 35c0
000003c0: 1316 d7bf 45a0 4fc0 daaa cbbe c74b 913d
000003d0: 0c7c 3fbf 8f42 1dbe 9a08 2a3f 3301 f23e
000003e0: c69c 943d 7d59 0ec0 ad25 4ebd 82f4 e23e
000003f0: 4f73 9bbf 65d9 98be 3c88 febe 7ca0 0bc0
-1.4191936 0.19360834 -0.01029092 -0.71729946 -0.48353282 -0.1919131 -0.20698653 -2.8515563
-0.2758617 0.20081368 0.09476996 -1.7437435 -0.47156802 -0.17543815 -0.8422952 -0.13059644
-3.9449437 -0.9621454 -0.15400526 -0.5452656 0.6126719 0.012898207 -0.011655068 -0.27488965
-1.8175702 0.36296195 0.37404346 -1.5929989 -2.2303307 0.021415919 0.48781338 -0.5838717
0.7867977 0.28719568 -0.021738304 -2.0729117 -0.18479273 -0.22319816 -2.1110532 -0.39820784
0.4701369 0.1468686 -0.9205034 -0.7148054 0.05447199 0.123373926 -2.268939 -0.51024884
0.87859535 -0.7295843 -0.23212041 -1.9225496 -0.29879814 0.0035309792 -0.22260095 -0.34114105
-0.96467036 -0.3914215 -3.4832745 -0.0009433178 0.63967806 0.34575978 -0.20269504 0.17152141
-0.2105963 -1.4549354 -2.632638 0.44244322 0.40015548 0.12355223 -0.14616598 -1.4712836
0.31787768 -2.2493055 -0.811979 -0.0146992635 0.1007737 -0.2609614 -0.8270032 -0.7846036
-0.699755 -0.11131571 -0.587615 -0.10968379 0.63312334 0.26405117 -2.5685482 -1.7767845
-1.4387772 -0.48865685 0.4052008 0.058987238 -2.5168529 -0.15530422 -0.33159423 -1.639674
0.14244163 -1.7424794 0.7004893 -1.1277913 -3.1713016 0.050968945 0.38538945 -0.61142933
0.13753211 -0.9762038 0.4636257 -3.4229467 -0.6116009 0.2620106 0.32589984 0.4079855
-1.6191267 -1.2667966 -0.9521633 0.028989507 0.19893774 0.12802687 -0.5865238 0.35814133
-0.23623575 -4.776593 0.61624974 -0.096909426 -1.9007847 0.16845259 0.65018445 -0.975098
-1.4354416 -0.67112696 -0.4034671 -0.96833384 -0.79531807 -0.24617785 0.1738679 0.87854064
0.26028332 0.74387354 0.87079906 -2.8318257 -2.2679954 -0.13735446 -1.039197 -1.6779743
0.4419248 0.82588667 0.2559509 -0.56069666 -2.9471388 0.30544534 -2.300558 -2.332543
-2.4134333 -2.9166784 -0.76225275 0.4320505 0.36675107 0.2884175 0.54026055 -1.4068109
-2.01653 0.23587134 -1.8851844 -1.7735162 0.57537043 -0.016828507 0.66596854 1.1343126
-1.0564795 -0.5277469 -0.77598155 -0.11427468 0.11906452 0.17966112 -0.3979963 -1.8562226
-0.09444381 -0.7067579 -0.68450755 -0.5628726 -0.36905932 -0.34049967 -0.97931695 0.50374305
0.27513713 0.15893123 -2.2270849 -1.7181102 0.40412685 -0.13119943 -0.0019627905 0.4370074
-0.8771924 -0.33261815 -0.80438226 -1.1763145 0.36867437 0.18534866 -0.12221781 -0.18680559
-0.11082825 -0.11767926 -0.21938854 -3.050081 0.7817585 -0.20935772 -0.2741806 0.03924035
-0.05319278 -1.6586492 -0.3907399 -2.4346578 0.4355256 0.35309616 0.63564205 0.45775887
-0.41505858 -2.3828633 -0.6507829 -0.6335693 0.31615576 0.22659293 0.046475537 0.07197876
-0.5486509 0.98728627 -3.4951286 0.022471681 0.31663126 -0.2173451 -0.6569873 -1.6451635
0.46933678 -0.73525673 -0.7693194 0.26649466 -0.14155197 -0.26689678 -2.2521734 -2.83347
-1.6803612 -3.244157 -0.39778787 0.070945315 -0.74798656 -0.15357421 0.66419375 0.4726654
0.07256465 -2.224212 -0.0503289 0.4432717 -1.2144564 -0.2985336 -0.49713314 -2.1816702

l3.bias f4 [51]
00000000: bbd4 c7bd 77d8 1a3e bcbf 93be 1d9e d63e
00000010: 3762 d9be 5085 91be b7a3 dbbe 07f0 0cbf
00000020: 5aab 893c 9de0 6fbf 8d43 d3be 69ef c2be
00000030: 1254 c0bd 42fe 20bf 2440 47bf b62f 14be
00000040: 1c89 c83d 3718 af3e 0a5f e83e f3b4 a73e
00000050: ba0f fe3e d53d b8bd 8e5c 27bf 8376 ad3c
00000060: ab5d 1abf 2fff b0be 6e1e 7cbe 0be8 54bf
00000070: 9863 173f 2610 623e d89a aabe c27b 533c
00000080: 60d8 23bf fba2 42bf a39a d93d ec62 0f3f
00000090: 289d 76be d0b5 6cbe 2a78 2ebe d966 1c3f
000000a0: 7d9a b63e be54 6f3d 9bb6 f5be dcd5 9a3e
000000b0: 37bc a4be 4655 81bd e13c 8ebe 6e74 693f
000000c0: 255b 3b3e 1a4e 5c3e 66f6 343f
-0.09757372 0.15121637 -0.2885722 0.41917506 -0.42457744 -0.28422022 -0.42898342 -0.5505375
0.01680534 -0.9370211 -0.41262475 -0.3807328 -0.09391035 -0.62887967 -0.77832246 -0.14471325
0.097917765 0.34198162 0.4538501 0.3275524 0.49621373 -0.089961685 -0.653756 0.021174675
-0.60299176 -0.3456969 -0.24620983 -0.8316657 0.59136343 0.22076473 -0.3332126 0.012907924
-0.6400204 -0.7602994 0.10625198 0.5601032 -0.24083388 -0.23116231 -0.17038026 0.61094433
0.3566474 0.058430426 -0.4799088 0.30241287 -0.32174847 -0.06315093 -0.27780822 0.9119328
0.18296488 0.21514168 0.70688474
